Predictive model/DCE_predictive_model.pkl (torch, 472979 bytes, 88 tensors)

weight f4 [4, 3]
0.0060086665 -0.009207427 -0.010994257 -0.14251515 0.17795771 0.29212198 0.11252294 -0.07702983
-0.10218501 0.100548685 -0.19384179 -0.23793842
00000000: 59e4 c43b bfda 16bc 4221 34bc 7eef 11be
00000010: 8c3a 363e 0391 953e 6d72 e63d d1c1 9dbd
00000020: 6046 d1bd 78ec cd3d 767e 46be 21a6 73be

weight f4 [10]
0.8925579 0.9386701 0.9039513 1.085929 1.0146531 1.0250351 1.0214412 1.0440786
1.0014935 1.0373162
00000000: ad7e 643f af4c 703f 5a69 673f b9ff 8a3f
00000010: 27e0 813f 5a34 833f 96be 823f 5ea4 853f
00000020: f030 803f c7c6 843f

bias f4 [10]
0.03169562 -0.030533139 0.024130523 -0.017795017 0.0010566897 -0.003860267 0.0047593126 -0.004613483
-0.07438335 0.013535555
00000000: 44d3 013d a220 fabc 60ad c53c dbc6 91bc
00000010: 9f80 8a3a 89fc 7cbb 02f4 9b3b b32c 97bb
00000020: 4c56 98bd 3cc4 5d3c

running_mean f4 [10]
-0.031594906 -0.02557054 0.003592316 -0.0070577906 -0.013230443 -0.012922032 0.012392972 0.012065506
0.0025298325 0.007681239
00000000: a969 01bd 4f79 d1bc 106d 6b3b 0a45 e7bb
00000010: 80c4 58bc eeb6 53bc e40b 4b3c 66ae 453c
00000020: 8ccb 253b e7b2 fb3b

running_var f4 [10]
0.54409903 1.0197477 1.3091637 1.0425569 1.0278381 1.0286453 1.0292138 1.0292066
1.0080655 0.9635028
00000000: 134a 0b3f 1887 823f ad92 a73f 8172 853f
00000010: 3390 833f a6aa 833f 47bd 833f 0bbd 833f
00000020: 4a08 813f 1fa8 763f

weight f4 [300, 13]
0.20056953 -0.18640879 0.06515269 -0.20532782 -0.15686782 0.16912399 0.1544479 -0.21471898
0.16672327 0.18288195 0.066205695 -0.14978135 0.24292336 -0.13113175 0.120218724 0.20500343
-0.046783775 0.010126937 -0.089184746 -0.07576979 -0.1135871 0.16232952 -0.21417895 0.17684746
-0.0414622 0.16249532 -0.04917285 -0.1184919 -0.224582 0.030052451 -0.2030601 -0.25742057
-0.049676538 0.16134945 -0.014258405 0.2096705 0.08748852 -0.21635316 0.02761922 0.0040965755
-0.04583365 -0.23212202 -0.11147964 -0.05697518 -0.05173418 -0.03323412 0.07881594 -0.25841537
0.07338255 0.03188709 -0.21486706 -0.067225106 0.21330205 -0.021462642 0.117661014 0.072361514
-0.09026677 -0.17553076 -0.22122954 -0.16968232 -0.05746536 -0.10232712 0.13896982 -0.05554591
0.08473071 -0.0341266 0.24844837 0.28052342 0.18162444 0.2025897 0.06165137 0.2440387
0.038678695 0.20556724 -0.026869804 -0.016940387 -0.10394189 -0.23001465 -0.28558517 -0.055923436
0.4081836 0.043287065 -0.10494349 0.08876411 0.17463823 0.019559411 0.24988833 0.07448831
0.12759669 0.17731057 0.27266696 0.04093011 0.1898762 0.26278335 0.15378222 -0.15848665
-0.22253494 0.20562205 -0.22064273 0.059298538 0.14115949 0.22980252 -0.16733703 0.18016015
-0.10764981 0.047820583 -0.09543148 0.008569265 -0.14980564 -0.23970947 0.09203523 0.06849613
-0.05942058 -0.25492248 0.06460472 0.14838123 -0.19134049 0.43771365 -0.19360617 -0.24026005
0.24597904 -0.24368294 -0.22194552 0.14720449 0.07605156 -0.22754148 -0.10398297 0.15780403
0.16685553 -0.04098739 -0.10929708 -0.013076325 0.17035553 -0.1459379 -0.018803457 0.16728461
-0.16094041 0.15370218 0.20627752 -0.1589145 -0.24089895 0.030699143 0.15635958 0.09134171
-0.4431988 -0.19522497 -0.072747685 -0.055288352 0.07554798 -0.007214919 0.074788444 -0.30195954
0.06943752 0.10679347 -0.19874522 -0.039054412 0.37056124 -0.60276824 -0.65633845 -0.10797707
-0.16540273 0.13657515 0.083529115 -0.00048992765 -0.1824374 0.23866495 -0.015677067 -0.18984629
-0.10421994 -0.004668989 0.07452032 0.14488679 0.20029482 0.14863707 -0.0013058363 0.1478068
0.1154909 0.09742373 -0.120615944 0.1850646 0.14334987 0.14725223 0.057524737 0.13409021
0.21579213 -0.12671702 0.050584737 -0.020654496 0.017209096 -0.2810613 0.029895183 0.22065365
-0.032495968 0.1783919 -0.27462903 -0.0074966364 0.08271547 0.15215623 0.028609866 -0.18641074
0.024308434 -0.14668141 0.16705112 0.0461904 0.15695576 -0.10151956 0.0006627045 0.053306825
0.2891522 -0.29926118 -0.49433404 -0.20530336 -0.12824753 0.19869433 0.010433259 0.016249605
0.0073886546 -0.17096898 -0.05037857 -0.21149257 -0.04793743 0.031050438 0.13161184 -0.07625489
-0.1283841 0.2572552 -0.20370524 -0.2422295 0.275574 -0.21107207 -0.07105348 -0.2628948
-0.1763359 0.09241554 0.40777496 -0.3470991 0.0420736 -0.2723733 -0.105617486 0.061967593
0.08894975 -0.18812945 -0.2667621 0.021485524 -0.27841157 -0.1661342 0.041719813 0.05627428
0.33235174 -0.04681878 0.026420942 0.15733266 -0.0391955 -0.1132497 0.047703214 -0.22167541
00000000: 1962 4d3e f2e1 3ebe c66e 853d 7541 52be
00000010: f5a1 20be d72e 2d3e 9727 1e3e 4bdf 5bbe
00000020: 81b9 2a3e 6845 3b3e da96 873d 4860 19be
00000030: e7c0 783e 6747 06be 3c35 f63d 6bec 513e
00000040: 58a0 3fbd 74eb 253c 7ea6 b6bd 312d 9bbd
00000050: 5aa0 e8bd b639 263e ba51 5bbe 8017 353e
00000060: 45d4 29bd 2c65 263e 7869 49bd e2ab f2bd
00000070: d3f8 65be 8f30 f63c fdee 4fbe a1cc 83be
00000080: a079 4bbd ca38 253e 169c 69bc ddb3 563e
00000090: 2e2d b33d af8b 5dbe b441 e23c 913c 863b
000000a0: 11bc 3bbd 65b1 6dbe 704f e4bd ce5e 69bd
000000b0: 38e7 53bd 8020 08bd 406a a13d 054f 84be
000000c0: 9749 963d 0a9c 023d 1c06 5cbe 51ad 89bd
000000d0: da6b 5a3e 6cd2 afbc 42f8 f03d 4632 943d
000000e0: c9dd b8bd 56be 33be ff89 62be 34c1 2dbe
000000f0: cc60 6bbd e290 d1bd 1b4e 0e3e 1c84 63bd
00000100: 4b87 ad3d 55c8 0bbd 4069 7e3e c4a0 8f3e
00000110: c2fb 393e ad73 4f3e 2686 7c3d 48e5 793e
00000120: 8d6d 1e3d 3880 523e 101e dcbc 91c6 8abc
00000130: 7cdf d4bd f688 6bbe 3838 92be f90f 65bd
00000140: 71fd d03e c74d 313d 9dec d6bd f5c9 b53d
00000150: 5dd4 323e 0f3b a03c bae2 7f3e 548d 983d
00000160: b5a8 023e e790 353e 019b 8b3e 55a6 273d
00000170: e86e 423e 8a8b 863e 1679 1d3e 534a 22be
00000180: 33e0 63be 968e 523e 2bf0 61be 06e3 723d
00000190: 1d8c 103e 5a51 6b3e 665a 2bbe e77b 383e
000001a0: 8177 dcbd 84df 433d 9471 c3bd 1a66 0c3c
000001b0: a666 19be 6676 75be f77c bc3d b347 8c3d
000001c0: fe62 73bd 3385 82be 7b4f 843d 40f1 173e
000001d0: c3ee 43be 011c e03e b240 46be bb06 76be
000001e0: eee1 7b3e 0588 79be b045 63be c6bc 163e
000001f0: ecc0 9b3d a200 69be 06f5 d4bd 6197 213e
00000200: 2ddc 2a3e 65e2 27bd 26d7 dfbd 153e 56bc
00000210: ae71 2e3e bf70 15be b509 9abc a84c 2b3e
00000220: 90cd 24be 1b64 1d3e 6a3a 533e 7cba 22be
00000230: 37ae 76be c57c fb3c ba1c 203e 5d11 bb3d
00000240: f4ea e2be 0ee9 47be bdfc 94bd 0a76 62bd
00000250: e6b8 9a3d 216b ecbb af2a 993d 719a 9abe
00000260: 4235 8e3d 89b6 da3d de83 4bbe 85f7 1fbd
00000270: 34ba bd3e 054f 1abf cc05 28bf 1523 ddbd
00000280: 555f 29be 5bda 0b3e 5011 ab3d 7d6e 00ba
00000290: dfd0 3abe 9664 743e 316d 80bc 1167 42be
000002a0: 4471 d5bd 52fe 98bb 1c9e 983d 345d 143e
000002b0: 161a 4d3e 5134 183e 9828 abba aa5a 173e
000002c0: 7e86 ec3d 1886 c73d 7e05 f7bd 9381 3d3e
000002d0: 4fca 123e 4ac9 163e 0f9f 6b3d f24e 093e
000002e0: 9df8 5c3e 1bc2 01be f131 4f3d 9e33 a9bc
000002f0: 17fa 8c3c 44e7 8fbe bee6 f43c 08f3 613e
00000300: 7e1a 05bd 5eac 363e 2d9c 8cbe 58a6 f5bb
00000310: ba66 a93d d8ce 1b3e 3d5f ea3c 75e2 3ebe
00000320: 7b22 c73c a733 16be 730f 2b3e 2532 3d3d
00000330: 03b9 203e 7de9 cfbd 59b9 2d3a 4258 5a3d
00000340: c20b 943e c338 99be 5a19 fdbe 0b3b 52be
00000350: 5253 03be 8776 4b3e 43f0 2a3c e41d 853c
00000360: 871c f23b 7e12 2fbe c259 4ebd 8291 58be
00000370: 0a5a 44bd 7d5d fe3c 41c5 063e 862b 9cbd
00000380: 1f77 03be f4b6 833e 1b98 50be 030b 78be
00000390: 0918 8d3e 4723 58be 7d84 91bd 269a 86be
000003a0: 6691 34be 5c44 bd3d e1c7 d03e f9b6 b1be
000003b0: 5e55 2c3d 8374 8bbe fb4d d8bd bbd1 7d3d
000003c0: 492b b63d 02a5 40be 0b95 88be 6902 b03c
000003d0: f68b 8ebe 151f 2abe 65e2 2a3d dc7f 663d
000003e0: 022a aa3e 0dc5 3fbd bb70 d83c d01b 213e
000003f0: 768b 20bd 75ef e7bd 7264 433d e1fe 62be

weight f4 [300]
0.9771322 0.9629054 0.98187274 1.0053884 1.0108045 1.0212519 0.9913967 0.98736185
0.9924229 0.9909303 1.0009105 1.0205668 1.0080482 1.003053 0.9621649 0.97362906
0.9817762 0.9704786 0.9956811 1.0055732 1.0035688 1.0121437 1.0083038 0.9906713
1.0187606 1.0374486 0.99785817 1.0068293 1.0006068 1.0258828 1.0388976 1.0093335
0.9802982 1.0136685 0.9935152 1.0049772 0.9744689 1.0239061 1.0285391 0.98721004
1.0264848 1.0063622 0.97477907 0.9919158 0.9700569 1.0013453 0.9907512 1.0314662
0.99712455 1.0172013 1.0238519 1.0332025 1.003814 0.9541771 0.99318284 1.0543358
0.9833056 1.018276 0.9979328 0.9877173 1.0074492 0.99966455 1.0068285 0.99096715
1.0118 0.9747747 0.9771813 1.046918 0.9598414 0.974669 0.9859087 1.0111768
0.9771442 1.0187474 1.013964 0.98241794 1.0037798 0.99898183 1.0008472 1.0345494
0.98909646 0.9894794 0.9953149 1.0110275 1.0041012 1.0039455 0.97197294 0.999081
0.9764557 0.98330945 0.96125656 1.0150745 1.0212772 1.0283349 0.9963564 1.0142827
1.0184653 0.9806258 0.9922797 1.0217623 0.9718553 1.0013822 1.0574391 0.9933119
1.0112375 0.97121394 0.99918526 0.9956213 1.0067612 0.9827812 0.988146 1.0114515
0.99537367 1.0050085 1.0028577 0.9951324 0.9903617 1.012201 1.0174512 1.0011413
1.0038347 0.97960466 1.0112087 1.0034833 1.0258749 0.98930883 1.0054512 0.98993975
0.982889 1.0228469 1.0285605 1.0101665 1.0052338 1.0333806 0.98505235 0.9942832
0.99223405 1.0286524 1.0219872 0.970557 0.98742574 1.0143381 1.0031011 1.0032902
1.0176579 0.96230614 1.0238296 1.0010747 0.9915648 1.0576065 0.99950886 1.0235258
1.0153594 1.031071 0.98041564 0.9698691 1.0074948 0.9961575 0.9916747 1.0043021
1.0268544 0.99869287 1.0281996 0.99426794 0.99281484 0.9984743 0.998876 0.9973855
1.0096701 0.9849176 0.98837215 1.0323511 0.99885756 1.0383078 0.97136617 0.9902795
0.97953063 0.9739227 0.998612 0.97855985 1.0490291 1.0172228 0.9951623 0.9864111
1.0678245 1.0001369 0.9846188 1.0026119 1.0029632 0.9943708 0.96223927 1.0232228
0.991513 0.961425 0.99971586 0.994423 1.0097014 1.0219066 0.98716164 0.99708825
1.0640277 0.99207973 0.9965159 0.9816045 0.96862954 1.0037262 0.990471 0.99410534
1.0043598 0.97631234 1.0075884 1.0186172 1.0118638 1.016849 1.0150057 0.99105686
0.9822928 0.99293995 0.97888947 0.96675056 0.99392223 1.0024786 0.9963166 1.0086654
0.99621975 0.9820479 1.0355817 1.0160545 1.0081915 1.0145077 1.0048808 1.009214
0.9898783 1.0224718 0.9974953 0.99887675 0.97237134 0.9837071 0.9812252 0.9753599
1.0562266 1.010765 0.98237336 0.9725035 0.98965687 0.9652466 0.99081147 0.98529416
1.0132684 1.0101461 0.9848195 1.0095984 1.0019958 1.0193417 1.0045862 1.0185384
00000000: 5625 7a3f f880 763f 035c 7b3f 91b0 803f
00000010: 0b62 813f 62b8 823f 2dcc 7d3f bfc3 7c3f
00000020: 6d0f 7e3f 9cad 7d3f d61d 803f efa1 823f
00000030: b907 813f 0a64 803f 7050 763f c13f 793f
00000040: af55 7b3f 4971 783f f5e4 7e3f 9fb6 803f
00000050: f174 803f ed8d 813f 1910 813f a29c 7d3f
00000060: bf66 823f 1ecb 843f a273 7f3f c8df 803f
00000070: e213 803f 2150 833f 99fa 843f d731 813f
00000080: d3f4 7a3f e4bf 813f 0357 7e3f 18a3 803f
00000090: cb76 793f 5b0f 833f 2ba7 833f ccb9 7c3f
000000a0: db63 833f 7ad0 803f 1f8b 793f 32ee 7d3f
000000b0: a655 783f 152c 803f dfa1 7d3f 1607 843f
000000c0: 8e43 7f3f a733 823f 940d 833f fb3f 843f
000000d0: fa7c 803f f344 743f 3b41 7e3f 7af4 863f
000000e0: eab9 7b3f de56 823f 8678 7f3f 0adb 7c3f
000000f0: 18f4 803f 04ea 7f3f c2df 803f 06b0 7d3f
00000100: aa82 813f d68a 793f 8e28 7a3f 6901 863f
00000110: 2ab8 753f e883 793f 8364 7c3f 3e6e 813f
00000120: 1f26 7a3f 5166 823f 93c9 813f be7f 7b3f
00000130: db7b 803f 46bd 7f3f c31b 803f 1d6c 843f
00000140: 6d35 7d3f 864e 7d3f f5cc 7e3f 5969 813f
00000150: 6386 803f 4981 803f 38d3 783f c6c3 7f3f
00000160: 00f9 793f 2bba 7b3f e914 763f f6ed 813f
00000170: 36b9 823f 7aa0 833f 3711 7f3f 04d4 813f
00000180: 125d 823f 4b0a 7b3f 0b06 7e3f 1bc9 823f
00000190: 82cb 783f 4b2d 803f 2a5a 873f b049 7e3f
000001a0: 3b70 813f 7aa1 783f 9bca 7f3f 0ae1 7e3f
000001b0: 8ddd 803f 8c97 7b3f 23f7 7c3f 3e77 813f
000001c0: cfd0 7e3f 1ea4 803f a45d 803f ffc0 7e3f
000001d0: 5888 7d3f cd8f 813f d73b 823f 6625 803f
000001e0: a87d 803f 5fc7 7a3f 496f 813f 2472 803f
000001f0: de4f 833f 5843 7d3f a0b2 803f b16c 7d3f
00000200: 9d9e 7b3f a6ec 823f dfa7 833f 234d 813f
00000210: 80ab 803f d145 843f 642c 7c3f 5889 7e3f
00000220: 0d03 7e3f e2aa 833f 7ad0 823f 6c76 783f
00000230: efc7 7c3f d5d5 813f 9e65 803f d06b 803f
00000240: 9d42 823f b259 763f d90c 833f 3723 803f
00000250: 31d7 7d3f a65f 873f d0df 7f3f e502 833f
00000260: 4cf7 813f 22fa 833f 85fc 7a3f 5749 783f
00000270: 97f5 803f 2e04 7f3f 65de 7d3f f98c 803f
00000280: f76f 833f 56aa 7f3f 0b9c 833f 5888 7e3f
00000290: 1d29 7e3f 039c 7f3f 56b6 7f3f a854 7f3f
000002a0: df3c 813f 8f23 7c3f f505 7d3f 1524 843f
000002b0: 21b5 7f3f 45e7 843f 74ab 783f f582 7d3f
000002c0: 85c2 7a3f 0053 793f 09a5 7f3f e682 7a3f
000002d0: 9646 863f 5b34 823f f5c2 7e3f 7085 7c3f
000002e0: 79ae 883f 7c04 803f fa0f 7c3f 9655 803f
000002f0: 1961 803f 168f 7e3f 5055 763f f7f8 823f
00000300: ccd3 7d3f f31f 763f 61ed 7f3f 8192 7e3f
00000310: e53d 813f d6cd 823f a0b6 7c3f 2d41 7f3f
00000320: 0f32 883f f0f8 7d3f ab1b 7f3f 6f4a 7b3f
00000330: 1bf8 773f 1a7a 803f 828f 7d3f b07d 7e3f
00000340: dd8e 803f 9bef 793f a8f8 803f 0c62 823f
00000350: c184 813f 1c28 823f b5eb 813f e7b5 7d3f
00000360: 8a77 7b3f 5031 7e3f 8098 7a3f f77c 773f
00000370: b071 7e3f 3851 803f 9b0e 7f3f f31b 813f
00000380: 4208 7f3f 7e67 7b3f f18d 843f 130e 823f
00000390: 6b0c 813f 63db 813f ef9f 803f ed2d 813f
000003a0: aa68 7d3f 5be0 823f da5b 7f3f 63b6 7f3f
000003b0: 54ed 783f 3ad4 7b3f 9331 7b3f 30b1 793f
000003c0: 6f32 873f bf60 813f d27c 7b3f fdf5 783f
000003d0: 275a 7d3f 671a 773f d2a5 7d3f 3d3c 7c3f
000003e0: c7b2 813f 784c 813f 211d 7c3f 853a 813f
000003f0: 6641 803f ca79 823f 4896 803f 775f 823f

bias f4 [300]
-0.00948385 -0.014569303 -0.02615678 -0.005099143 0.010897624 0.01806483 -0.00067935436 -0.023403972
0.002451966 -0.0011560104 0.0013804199 -0.011537479 0.0037353185 -0.032390572 0.0022781878 -0.009522328
0.014392888 -0.005034545 0.025632385 -0.008653795 0.011802992 0.016791547 -0.025799453 0.0023603288
0.012722904 0.00503023 -0.003899693 -0.01154753 -0.010456408 0.010010784 -0.039568555 0.0023580794
0.017428294 -0.014016446 -0.02348316 0.0023303514 -0.0011658996 -0.0012894017 0.007488363 -0.0014650451
-0.00027236756 0.0066945865 0.007261624 0.009237465 -0.04086726 -0.034625906 0.009377715 0.020557392
-0.00029369607 0.04258195 0.005990682 0.015773563 0.026856882 -0.020208266 0.012126332 0.0068809055
0.007927372 0.01675739 0.029954577 0.021999585 0.017624063 -0.0040720995 -0.012628134 0.023730164
0.023700844 0.018540163 0.009044271 0.016113885 0.05648705 0.024773562 0.04097118 0.007086505
0.0024900718 0.01694433 -0.01716671 0.04003514 0.014214835 -0.016997257 0.016180575 -0.006215562
0.009706686 0.028532516 0.003881405 0.023402652 0.019973109 0.016839113 -0.0024859945 0.007918257
-0.01031051 0.006045977 -0.0123821115 0.00011762312 0.021537475 -0.010464717 0.0028914458 -0.015651675
-0.0264885 -0.012378666 0.01712789 0.0025685362 -0.019180601 0.006517458 0.02002631 0.03249534
-0.0043294905 0.0024413336 -0.004176685 0.02432412 0.0056929355 0.0070513897 0.016316283 0.021623403
-0.008283933 0.0049446593 -0.012293936 0.00023963446 0.011663702 0.011318499 -0.017679758 -0.014730381
0.006661382 0.00022171509 -0.01213869 -0.009013909 -0.0056924885 -0.0050923293 0.00015798632 -0.0111324275
-0.008971442 -0.0048008678 -0.0052490174 0.009064447 0.018179668 0.0033516397 0.052643493 -0.005259499
-0.0051033017 0.019044118 0.008096273 0.0010390128 -0.00057956047 -0.009762825 0.019326052 -0.017545199
0.013576464 -0.011000831 0.013795955 -0.025921673 -0.0042154156 -0.011944643 0.012948892 0.016499728
0.023916516 0.017943183 0.021521054 -0.0019021317 -0.018483222 -0.020842731 0.011064336 -0.012315482
0.026610754 0.027377155 0.011298492 -0.007115666 0.008708285 0.029346175 0.0063367956 0.0046546203
-0.026559494 0.028430048 -0.001631914 0.0020276075 0.005503138 0.024809657 0.019359896 -0.023927411
0.029133316 0.026677223 0.020597091 -0.026513737 0.0015459226 -0.012499708 0.005915668 0.0014665182
-0.026540566 0.00802462 0.008512729 0.013425045 0.01687138 0.010891495 0.03187822 -0.032642346
0.018258305 0.04515794 0.027079226 0.011708261 -0.002683532 -0.0020990828 0.010044956 -0.00072441006
-0.005751315 -0.018988729 -0.0049442938 -0.010121405 -0.015284863 -0.004989394 -0.0129488595 -0.023896344
0.009612561 0.006803232 0.015864946 -0.007964991 0.0067703645 -0.052920178 -0.010033152 0.036386788
0.024702873 0.004679082 0.008548227 0.022802906 -0.029304937 -0.017966675 0.006939189 -0.010147619
0.021175316 -0.00888359 0.012848084 -0.012558578 0.018530035 0.028212195 0.008096028 -0.0012099076
-0.015593064 0.029884456 -0.013770461 0.012847875 0.0065717273 0.018364206 -0.022819228 -0.031528335
-0.028069554 0.006262238 0.015184437 0.011337828 -0.011005909 -0.014014681 -0.011999486 -0.019301398
-0.018511113 0.006523061 0.02164419 0.0033144243 -0.021528075 0.028577497 0.013537725 -0.015639678
00000000: 2662 1bbc 16b4 6ebc be46 d6bc b616 a7bb
00000010: f38b 323c b2fc 933c b316 32ba b0b9 bfbc
00000020: 2ab1 203b 4685 97ba 35ef b43a b207 3dbc
00000030: 3fcc 743b faab 04bd a64d 153b 8a03 1cbc
00000040: 26d0 6b3c d3f8 a4bb 02fb d13c a6c8 0dbc
00000050: 5661 413c 6d8e 893c 6059 d3bc bfaf 1a3b
00000060: ba73 503c a1d4 a43b fe91 7fbb da31 3dbc
00000070: 5b51 2bbc 4504 243c a312 22bd 028a 1a3b
00000080: c8c5 8e3c 3ca5 65bc c25f c0bc cfb8 183b
00000090: 19d1 98ba 2401 a9ba f160 f53b c206 c0ba
000000a0: 8ecc 8eb9 435e db3b ebf2 ed3b bd58 173c
000000b0: 6e64 27bd e5d3 0dbd fda4 193c fa67 a83c
000000c0: 38fb 99b9 696a 2e3d 7c4d c43b 8f37 813c
000000d0: f702 dc3c ce8b a5bc 86ad 463c 3879 e13b
000000e0: cfe1 013c cb46 893c 4d63 f53c 7938 b43c
000000f0: 5760 903c 3f6f 85bb 3ce6 4ebc c365 c23c
00000100: 4628 c23c 8ae1 973c 6c2e 143c 4401 843c
00000110: f75e 673d edf1 ca3c 65d1 273d ea35 e83b
00000120: 7930 233b d6ce 8a3c 33a1 8cbc e3fb 233d
00000130: 57e5 683c d53d 8bbc 208d 843c eaab cbbb
00000140: cb08 1f3c 06bd e93c 2c5f 7e3b ebb6 bf3c
00000150: a59e a33c 2ef2 893c 11ec 22bb 94bb 013c
00000160: 6aed 28bc 551d c63b 57de 4abc 6fac f638
00000170: 5c6f b03c 3474 2bbc 697e 3d3b f137 80bc
00000180: 69fe d8bc e3cf 4abc ca4f 8c3c e354 283b
00000190: a320 9dbc 6690 d53b 370e a43c d519 053d
000001a0: 66de 8dbb c8fe 1f3b 93dc 88bb 6043 c73c
000001b0: ce8b ba3b 580f e73b baa9 853c 9023 b13c
000001c0: 55b9 07bc cf06 a23b 816c 49bc 6346 7b39
000001d0: 1d19 3f3c 3a71 393c 24d5 90bc b257 71bc
000001e0: b947 da3b 317c 6839 5be1 46bc 13af 13bc
000001f0: 0e88 babb 8edd a6bb 21a9 2539 c964 36bc
00000200: f4fc 12bc 9950 9dbb f3ff abbb 0c83 143c
00000210: 87ed 943c 2fa7 5b3b b4a0 573d e057 acbb
00000220: 9939 a7bb 6902 9c3c 3ba6 043c 7c2f 883a
00000230: a5ed 17ba 42f4 1fbc ab51 9e3c f3ba 8fbc
00000240: d16f 5e3c d43c 34bc 6e08 623c b059 d4bc
00000250: 7821 8abb 77b3 43bc 9727 543c 702a 873c
00000260: 92ec c33c 95fd 923c ec4c b03c f350 f9ba
00000270: 206a 97bc 60be aabc 3047 353c e0c6 49bc
00000280: ccfe d93c 0e46 e03c 4f1d 393c 882a e9bb
00000290: 32ad 0e3c 6467 f03c e5a4 cf3b c985 983b
000002a0: 4c93 d9bc 22e6 e83c f3e5 d5ba 9ce1 043b
000002b0: ab53 b43b 9f3d cb3c a598 9e3c 6b03 c4bc
000002c0: fea8 ee3c 318a da3c 3bbb a83c 5633 d9bc
000002d0: 8ea0 ca3a 93cb 4cbc 38d8 c13b 2f38 c03a
000002e0: 9a6b d9bc b279 033c f978 0b3c b8f4 5b3c
000002f0: d935 8a3c 3e72 323c bd92 023d fbb3 05bd
00000300: 7192 953c 88f7 383d 41d5 dd3c 02d4 3f3c
00000310: 32de 2fbb c490 09bb 9993 243c 56e6 3dba
00000320: 8775 bcbb 408e 9bbc be03 a2bb 40d4 25bc
00000330: 5d6d 7abc 127e a3bb 7427 54bc 44c2 c3bc
00000340: 017e 1d3c a5ed de3b 34f7 813c 987f 02bc
00000350: efd9 dd3b d4c2 58bd 1762 24bc 500a 153d
00000360: ae5d ca3c fc52 993b dd0d 0c3c 29cd ba3c
00000370: e810 f0bc d92e 93bc 2362 e33b 3342 26bc
00000380: db77 ad3c 7a8c 11bc c580 523c 7ec2 4dbc
00000390: 4dcc 973c 431d e73c 34a5 043c c395 9eba
000003a0: 0d7a 7fbc 3fd0 f43c 809d 61bc e57f 523c
000003b0: a557 d73b 8870 963c 64ef babc db23 01bd
000003c0: 1ff2 e5bc 7633 cd3b 25c8 783c 4cc2 393c
000003d0: 2152 34bc d59d 65bc 7e99 44bc f71d 9ebc
000003e0: 9ea4 97bc 67bf d53b 284f b13c d036 593b
000003f0: a55b b0bc 5b1b ea3c 56cd 5d3c c81e 80bc

running_mean f4 [300]
0.20646779 0.08443985 0.19170263 0.19177546 0.21066049 0.26999742 0.15250987 0.21003912
0.15672593 0.17539337 0.26679432 0.20564029 0.25652325 0.2107128 0.21610636 0.08863901
0.24231336 0.1850206 0.19354428 0.15150571 0.16834036 0.25388992 0.24141577 0.175997
0.20613071 0.13397942 0.179464 0.23074323 0.17310233 0.26210114 0.18924336 0.100683816
0.16148674 0.09376367 0.28017682 0.23991506 0.19058703 0.0976584 0.2737356 0.3153787
0.19963434 0.36637652 0.35893384 0.14308566 0.26275083 0.19820035 0.16916732 0.18427147
0.19462746 0.13170883 0.18255451 0.16458827 0.10825344 0.16388296 0.23503906 0.11833186
0.13136612 0.20597118 0.20932868 0.2341524 0.22097374 0.21571341 0.16769865 0.20237808
0.18147504 0.15697752 0.1678913 0.11057728 0.15015985 0.18495703 0.19601595 0.25852042
0.17885879 0.3307529 0.16258359 0.3548237 0.24411839 0.13296579 0.14913948 0.1178848
0.1910477 0.17500946 0.31641126 0.20649205 0.20485854 0.21448241 0.19186324 0.1977252
0.14719704 0.19618443 0.16094199 0.24110994 0.23304635 0.18479201 0.15419427 0.29596204
0.16180602 0.16600418 0.15503553 0.19287334 0.12770428 0.26376736 0.18202771 0.1377773
0.2192756 0.19447097 0.23946296 0.23967552 0.15942013 0.15142308 0.19952846 0.30296093
0.21490873 0.15941063 0.18736213 0.18007979 0.25574884 0.19137132 0.18648145 0.16284323
0.26147312 0.13380252 0.2987237 0.25557256 0.19244136 0.21525876 0.1557705 0.2141267
0.18962821 0.26799688 0.29365826 0.19671993 0.12333421 0.116373554 0.36911973 0.19441088
0.17607254 0.15690932 0.22552711 0.19311619 0.15428463 0.20174925 0.26289687 0.19077682
0.1956367 0.12698612 0.21960297 0.29300892 0.13853312 0.20913869 0.24453722 0.1297904
0.17553622 0.116262905 0.16224173 0.14075953 0.1818184 0.22643022 0.19688046 0.1821508
0.21112546 0.1632248 0.20574787 0.09518018 0.16966692 0.22410509 0.15032321 0.10531432
0.16544029 0.11331559 0.1860866 0.17029287 0.20774466 0.26213947 0.13335112 0.19269809
0.22027276 0.12942775 0.18048303 0.1623057 0.25145462 0.24473803 0.13705564 0.14376983
0.15728746 0.21278843 0.20552292 0.15302935 0.26456124 0.22384924 0.14996043 0.1172869
0.15826139 0.17824683 0.20510289 0.23024116 0.22726882 0.12096108 0.24745816 0.11482036
0.121220656 0.1661112 0.19498082 0.18909667 0.18730652 0.39339593 0.14355138 0.13449147
0.17855106 0.23737296 0.24328877 0.25709113 0.12770195 0.12052148 0.19431774 0.13395153
0.22623405 0.22033525 0.17856874 0.26635787 0.12478981 0.14470606 0.18990336 0.2262807
0.27247918 0.2771519 0.17545542 0.15937106 0.123130955 0.21044278 0.17420429 0.22365901
0.12580915 0.1386975 0.12820971 0.2983942 0.16185068 0.2176092 0.23529956 0.17373484
0.13684313 0.22194006 0.16971345 0.12888996 0.17636418 0.1987522 0.16667853 0.16619752
0.14236104 0.15725474 0.16390994 0.30295897 0.16103981 0.17807274 0.16490266 0.14634463
00000000: 4b6c 533e cdee ac3d b24d 443e c960 443e
00000010: 62b7 573e 1a3d 8a3e 8c2b 1c3e 7f14 573e
00000020: c37c 203e 529a 333e 4499 883e 5e93 523e
00000030: 0457 833e 19c5 573e fc4a 5d3e 5f88 b53d
00000040: fe20 783e 0a76 3d3e 7930 463e 5024 1b3e
00000050: 6a61 2c3e dcfd 813e b235 773e 8f38 343e
00000060: ee13 533e e731 093e 69c5 373e f447 6c3e
00000070: bd41 313e 1f32 863e 03c9 413e 5133 ce3d
00000080: c85c 253e 2b07 c03d 5673 8f3e 4bac 753e
00000090: 3f29 433e 2101 c83d 1327 8c3e 5179 a13e
000000a0: f26c 4c3e b495 bb3e 2dc6 b73e 0c85 123e
000000b0: 4787 863e 08f5 4a3e 333a 2d3e a9b1 3c3e
000000c0: 6c4c 473e aede 063e 92ef 3a3e d489 283e
000000d0: fbb3 dd3d efd0 273e 14ae 703e f957 f23d
000000e0: d784 063e 1cea 523e 425a 563e a6c5 6f3e
000000f0: f146 623e fae3 5c3e 32b9 2b3e 333c 4f3e
00000100: 98d4 393e b7be 203e b2eb 2b3e 5776 e23d
00000110: 81c3 193e 6065 3d3e 68b8 483e ca5c 843e
00000120: c226 373e 7258 a93e 507c 263e 74ab b53e
00000130: 2cfa 793e 2f28 083e 05b8 183e 966d f13d
00000140: 02a2 433e ae35 333e a800 a23e a772 533e
00000150: 70c6 513e 47a1 5b3e cc77 443e 7a78 4a3e
00000160: d2ba 163e 92e4 483e facd 243e 86e5 763e
00000170: b4a3 6e3e 1e3a 3d3e 1ae5 1d3e 5688 973e
00000180: 7ab0 253e 00fd 293e a2c1 1e3e 9780 453e
00000190: e9c4 023e 840c 873e 7965 3a3e 7e15 0d3e
000001a0: c889 603e 6623 473e c735 753e 806d 753e
000001b0: 083f 233e a70e 1b3e 3051 4c3e b21d 9b3e
000001c0: 0911 5c3e 8a3c 233e dcdb 3f3e d666 383e
000001d0: 83f1 823e d8f6 433e fef4 3e3e 60c0 263e
000001e0: cedf 853e 8703 093e 50f2 983e 68da 823e
000001f0: 590f 453e cb6c 5c3e 4d82 1f3e 0844 5b3e
00000200: e62d 423e e336 893e 605a 963e f370 493e
00000210: a596 fc3d 4255 ee3d 43fd bc3e a513 473e
00000220: 5c4c 343e d6ac 203e 94f0 663e 40c0 453e
00000230: cafc 1d3e 5b97 4e3e 6b9a 863e 005b 433e
00000240: fd54 483e a608 023e 9adf 603e 4405 963e
00000250: a0db 0d3e 7428 563e f767 7a3e c6e7 043e
00000260: c4bf 333e 3f1b ee3d b222 263e 4423 103e
00000270: 9a2e 3a3e 53dd 673e 089b 493e bd85 3a3e
00000280: 4631 583e 6724 273e 92af 523e d4ed c23d
00000290: 2abd 2d3e ce7b 653e 54ee 193e 09af d73d
000002a0: 2e69 293e 0112 e83d 7c8d 3e3e 4161 2e3e
000002b0: 04bb 543e 2537 863e 328d 083e a652 453e
000002c0: 2f8f 613e b588 043e 8bd0 383e 7733 263e
000002d0: a9be 803e 9b9c 7a3e 5058 0c3e 6638 133e
000002e0: f70f 213e 36e5 593e 9a74 523e bab3 1c3e
000002f0: 9274 873e bc38 653e 3a8f 193e 1d34 f03d
00000300: 460f 223e 5686 363e 7e06 523e 57c4 6b3e
00000310: 28b9 683e 71ba f73d ac65 7d3e f026 eb3d
00000320: 8942 f83d 0e19 2a3e 0da9 473e 8fa2 413e
00000330: 48cd 3f3e 316b c93e 22ff 123e 22b8 093e
00000340: 17d6 363e e611 733e b120 793e 73a1 833e
00000350: 4dc4 023e f7d3 f63d 3bfb 463e 972a 093e
00000360: e6a9 673e 909f 613e b9da 363e 0f60 883e
00000370: cd91 ff3d d32d 143e 0776 423e 21b6 673e
00000380: 6482 8b3e dbe6 8d3e 96aa 333e 2b32 233e
00000390: 152c fc3d 507e 573e 9c62 323e de06 653e
000003a0: 1dd4 003e b806 0e3e 6849 033e 20c7 983e
000003b0: 2fbc 253e f2d4 5e3e 5ef2 703e 8ce7 313e
000003c0: 9b20 0c3e 4144 633e 5dc9 2d3e bbfb 033e
000003d0: d098 343e b285 4b3e c7ad 2a3e af2f 2a3e
000003e0: 18c7 113e 6307 213e 02d8 273e 701d 9b3e
000003f0: 9fe7 243e b358 363e 3edc 283e 5edb 153e

running_var f4 [300]
0.08563925 0.016690582 0.10665218 0.09126999 0.17328404 0.11413901 0.051892526 0.16453542
0.05727 0.07794201 0.06718999 0.124760136 0.13240346 0.08035315 0.15554444 0.0228703
0.09254555 0.06083176 0.06470623 0.058672167 0.043877203 0.24195594 0.15538064 0.08436766
0.10837683 0.037136372 0.092596695 0.06838141 0.09540066 0.2868845 0.083799586 0.031107556
0.05046916 0.021887971 0.09755233 0.20757574 0.056147203 0.02170139 0.25841692 0.098705426
0.0484046 0.14478156 0.16869384 0.05354908 0.050965134 0.07545883 0.06594973 0.05878086
0.08654134 0.044011723 0.13315786 0.05687437 0.027926076 0.06551464 0.07530932 0.05171373
0.04695505 0.08911677 0.08227076 0.08597161 0.12521312 0.17512931 0.056863345 0.13378425
0.07287784 0.044584177 0.101023026 0.030350324 0.047126073 0.065558836 0.18702197 0.08543195
0.05060445 0.053920925 0.059366897 0.083223 0.23079674 0.0653477 0.06307834 0.036120273
0.07639374 0.03713676 0.09832144 0.090359785 0.13421077 0.09251098 0.07419968 0.079572774
0.08653404 0.09922506 0.055415154 0.06811373 0.116446 0.05275374 0.04814332 0.31992748
0.09599766 0.072042 0.048451405 0.10173551 0.043484733 0.0943139 0.07334265 0.055780143
0.14081663 0.07331848 0.17716311 0.09065076 0.052095596 0.043705944 0.08620097 0.34395537
0.07771072 0.048559785 0.15871714 0.115183555 0.1005318 0.09759628 0.07343755 0.04786938
0.077705875 0.06358105 0.27220535 0.066096924 0.08395973 0.11844383 0.05030121 0.13464718
0.09515783 0.15425682 0.33504975 0.091372736 0.046711095 0.028040543 0.06502839 0.111513875
0.03585927 0.0443061 0.20034537 0.104764104 0.06840646 0.122930095 0.07539135 0.12047153
0.120767094 0.020817248 0.060564414 0.13780044 0.04130628 0.14807679 0.10616476 0.035098508
0.06123394 0.030910054 0.062245637 0.042121135 0.06003535 0.2148731 0.05037983 0.06116548
0.1166847 0.052565884 0.06584125 0.019025011 0.06594776 0.084102884 0.06667283 0.034432814
0.05731677 0.033000298 0.07175941 0.047621667 0.09913494 0.07563352 0.03568324 0.08095454
0.08524843 0.036413494 0.0709044 0.049666706 0.06566152 0.23610231 0.04170277 0.042921875
0.058868717 0.13904789 0.093303755 0.051212426 0.29300585 0.21614976 0.04092168 0.035740875
0.059736114 0.064151146 0.06348345 0.12061765 0.21191849 0.035250306 0.107680514 0.023955049
0.033568308 0.11551562 0.0708711 0.049970116 0.075469315 0.13834095 0.07062743 0.06172011
0.08084872 0.0919981 0.30509737 0.21156843 0.032808397 0.032137252 0.07911113 0.040051315
0.18770021 0.0806478 0.046373177 0.08347515 0.03141893 0.04293492 0.09515415 0.17645492
0.31027794 0.07556427 0.07820464 0.052403066 0.031335074 0.10447215 0.07320962 0.1309389
0.04108804 0.04230245 0.04418116 0.07054627 0.051134374 0.05180004 0.066197075 0.05856845
0.036787644 0.121754736 0.051970772 0.03506401 0.06717943 0.114542164 0.05374521 0.049279455
0.0400433 0.050683986 0.051124036 0.420097 0.07992514 0.09281497 0.041849967 0.0460153
00000000: a263 af3d b0ba 883c 756c da3d c3eb ba3d
00000010: 5f71 313e b7c1 e93d 428d 543d f97b 283e
00000020: f393 6a3d 0fa0 9f3d e89a 893d 3e82 ff3d
00000030: c694 073e 3190 a43d 0b47 1f3e 7f5a bb3c
00000040: 8588 bd3d b92a 793d b384 843d 3a52 703d
00000050: 95b8 333d 4cc3 773e 1a1c 1f3e f4c8 ac3d
00000060: acf4 dd3d 4f1c 183d 56a3 bd3d 8d0b 8c3d
00000070: 6c61 c33d 86e2 923e 1e9f ab3d 46d5 fe3c
00000080: c0b8 4e3d 674e b33c 84c9 c73d bc8e 543e
00000090: 9cfa 653d 1dc7 b13c 394f 843e 1226 ca3d
000000a0: e743 463d 9e41 143e 14be 2c3e 4856 5b3d
000000b0: d1c0 503d 298a 9a3d a710 873d 33c4 703d
000000c0: 963c b13d a345 343d 895a 083e 19f5 683d
000000d0: 3ac5 e43c 8a2c 863d c63b 9a3d c7d1 533d
000000e0: f053 403d da82 b63d 927d a83d e211 b03d
000000f0: de37 003e 1955 333e 8ae9 683d bdfe 083e
00000100: fa40 953d e69d 363d 29e5 ce3d 3ea1 f83c
00000110: 4507 413d b643 863d b082 3f3e f2f6 ae3d
00000120: 9d46 4f3d 30dc 5c3d b42a 733d d270 aa3d
00000130: fb55 6c3e 04d5 853d 372f 813d daf2 133d
00000140: 5274 9c3d b71c 183d c05c c93d 8d0e b93d
00000150: 8c6e 093e 6676 bd3d 00f6 973d 0df7 a23d
00000160: c238 b13d 8236 cb3d 00fb 623d 367f 8b3d
00000170: 3e7b ee3d 4e14 583d ee31 453d 89cd a33e
00000180: 6c9a c43d c28a 933d fb74 463d b55a d03d
00000190: 0c1d 323d a527 c13d ac34 963d b879 643d
000001a0: 3c32 103e 0028 963d 3f6a 353e 1ba7 b93d
000001b0: 3162 553d 0105 333d 228a b03d eb1a b03e
000001c0: cc26 9f3d a0e6 463d bf86 223e 5be5 eb3d
000001d0: 9ee3 cd3d 8fe0 c73d 6d66 963d af12 443d
000001e0: 4224 9f3d c836 823d 805e 8b3e d35d 873d
000001f0: 14f3 ab3d ae92 f23d a408 4e3d f3e0 093e
00000200: 1ce2 c23d 80f5 1d3e a48b ab3e a121 bb3d
00000210: 2254 3f3d 48b5 e53c 9b2d 853d 6361 e43d
00000220: 2be1 123d 507a 353d 5627 4d3e 908e d63d
00000230: b018 8c3d c6c2 fb3d c866 9a3d c7b9 f63d
00000240: bd54 f73d ef88 aa3c 6412 783d 8f1b 0d3e
00000250: c630 293d 71a1 173e e96c d93d 74c3 0f3d
00000260: 71d0 7a3d 1537 fd3c 48f5 7e3d 3687 2c3d
00000270: a1e7 753d b207 5c3e 155b 4e3d a888 7a3d
00000280: 63f8 ee3d 534f 573d c7d7 863d 57da 9b3c
00000290: 9f0f 873d 223e ac3d c48b 883d 6c09 0d3d
000002a0: fdc4 6a3d 522b 073d 99f6 923d f00e 433d
000002b0: 4207 cb3d bfe5 9a3d 9728 123d 7ecb a53d
000002c0: bb96 ae3d 5126 153d 5336 913d 516f 4b3d
000002d0: 8c79 863d cec4 713e 86d0 2a3d d9ce 2f3d
000002e0: 5320 713d 9262 0e3e 0a16 bf3d 1fc4 513d
000002f0: dd04 963e 5d56 5d3e 7e9d 273d 0665 123d
00000300: dbad 743d ad61 833d 9c03 823d 6306 f73d
00000310: 2901 593e a062 103d 9a87 dc3d 613d c43c
00000320: ec7e 093d 7493 ec3d de24 913d 77ad 4c3d
00000330: a88f 9a3d 40a9 0d3e 1da5 903d 3ace 7c3d
00000340: 0494 a53d 8069 bc3d b935 9c3e 65a5 583e
00000350: 1962 063d 5aa2 033d 0405 a23d d90c 243d
00000360: 7c34 403e ac2a a53d cdf1 3d3d 05f5 aa3d
00000370: 23b1 003d 87dc 2f3d 2ee0 c23d 99b0 343e
00000380: c0dc 9e3e 71c1 9a3d c129 a03d 99a4 563d
00000390: 3559 003d 7ff5 d53d edee 953d d914 063e
000003a0: ef4b 283d 5545 2d3d 4ef7 343d 907a 903d
000003b0: 4772 513d 472c 543d 5592 873d 79e5 6f3d
000003c0: a4ae 163d 8c5a f93d 4edf 543d 489f 0f3d
000003d0: 5e95 893d 1595 ea3d f023 5c3d 41d9 493d
000003e0: 7104 243d 039a 4f3d 7067 513d f416 d73e
000003f0: cbaf a33d c615 be3d df6a 2b3d 8a7a 3c3d

weight f4 [200, 300]
-0.010348302 -0.009617972 -0.06944243 0.036316086 0.030440887 0.0026669619 -0.02673463 0.02644508
0.034354143 0.0076737422 -0.044382222 -0.06252096 0.042304296 -0.046108097 -0.052861977 0.037962656
-0.04699714 -0.094632134 0.0139976265 0.04136623 -0.053155605 0.0055467626 0.004782818 0.048277453
0.0098449 0.02348263 0.06917018 -0.012727344 -0.04885048 -0.037615646 0.07242386 -0.021641193
0.011438886 0.001928055 0.010225939 0.03903329 -0.027606366 -0.005204924 -0.05418741 0.024752315
0.043874387 0.04644889 0.03771096 -0.002342271 -0.06118431 -0.0045630876 0.059577804 0.052957196
0.05531946 0.027210066 0.011082581 0.060910508 0.04193438 -0.028882118 -0.052843034 0.025363976
0.037628077 0.06639566 0.013843117 -0.03537059 -0.034531653 -0.010257366 0.03356071 0.010517222
0.07866277 -0.013607377 -0.0444311 0.052286647 -0.04330991 0.003884501 -0.010878128 0.0033307832
0.006672759 0.0052092457 0.07460386 -0.002608089 -0.003768725 -0.03405647 0.050324332 -0.032486
0.044677515 0.020285228 0.055920754 0.0010940672 0.017203987 0.03689291 0.017777061 -0.046317663
0.043827966 0.014623959 -0.012255322 -0.06404556 0.04434052 -0.05862321 0.03711787 -0.036624722
-0.0744094 -0.00021342919 -0.060826093 -0.03693986 -0.040023305 -0.053145397 -0.054549668 -0.014637305
-0.047814284 0.06599313 0.022541082 -0.013507694 -0.0010210769 -0.029089797 -0.01957168 -0.03442754
-0.0016578898 -0.03942961 0.037281655 -0.06404714 -0.03488979 0.030748365 0.06481479 0.00074725493
-0.014933082 0.01399347 0.030231655 -0.033699356 0.046068307 0.04139389 -0.0036110352 -0.035589308
0.047742408 -0.0126806535 -0.037849844 0.018457057 -0.014848509 0.08452261 0.047705863 0.025208578
0.058236156 -0.025237499 -0.0633824 -0.021842502 0.054355938 0.025852267 0.060434725 -0.0050648544
0.011338609 0.013487672 -0.014186566 0.06300361 0.03674296 0.0040689646 0.00860978 0.03489775
-0.015522931 -0.00810215 -0.014423533 0.014307224 -0.046888374 0.04057671 0.042732198 0.026557416
0.030550092 -0.010302074 -0.03217241 -0.038035605 -0.016073067 0.031838156 0.071960144 -0.027743727
0.022970831 0.051667497 0.024852004 -0.00752349 0.0077121067 -0.023406386 -0.0046144887 0.017016828
0.003954726 0.013204302 0.03946002 -0.044732638 -0.0060631945 -0.012259561 -0.012944018 -0.0013926461
-0.02889315 -0.020630144 0.00045765837 0.05279338 -0.059409235 -0.04971719 -0.0081798285 -0.01616376
0.0071622776 -0.033497088 0.010516974 -0.05626102 0.007977106 0.064814426 -0.036996946 0.03209671
-0.020437466 0.047220286 0.006741145 0.015516094 -0.04709904 0.016198963 -0.02503084 -0.004585392
0.051406343 -0.06413374 0.014249793 -0.04923518 0.05388236 0.029213695 0.057613786 0.0438762
-0.024005055 -0.072983816 0.02000362 -0.018093681 -0.088260844 0.07203982 -0.07803706 -0.020114748
0.007355868 -0.04444536 0.0082252845 0.060819536 0.012935295 0.08213236 -0.029361196 0.04746644
-0.006546409 0.024499359 0.06469344 0.022563113 0.011070823 -0.049381703 -0.032502428 -0.019170996
0.026510486 0.02732398 0.032088816 -0.028969895 0.05004273 -0.06735648 -0.056676254 0.050718438
0.050846033 0.02977363 -0.047194675 0.014380232 -0.004546619 0.026094789 -0.022065205 0.03905613
00000000: ed8b 29bc b394 1dbc d537 8ebd 2dc0 143d
00000010: 2b5f f93c 32c8 2e3b 9502 dbbc 5aa3 d83c
00000020: eeb6 0c3d 0474 fb3b 22ca 35bd fd0a 80bd
00000030: 4547 2d3d d8db 3cbd cd85 58bd bb7e 1b3d
00000040: 1380 40bd 7ece c1bd 4d56 653c a36f 293d
00000050: b1b9 59bd 9ec1 b53b 2fb9 9c3b 94be 453d
00000060: 814c 213c a55e c03c 18a9 8d3d 5a86 50bc
00000070: 7117 48bd dd12 1abd f652 943d df48 b1bc
00000080: 2a6a 3b3c cab6 fc3a b28a 273c 5fe1 1f3d
00000090: bf26 e2bc 118e aabb 9ef3 5dbd 5ec5 ca3c
000000a0: a1b5 333d 3141 3e3d cf76 1a3d c980 19bb
000000b0: 669c 7abd f485 95bb db07 743d a5e9 583d
000000c0: a896 623d a5e7 de3c b793 353c 4c7d 793d
000000d0: 62c3 2b3d 319a ecbc f071 58bd 1dc8 cf3c
000000e0: e61f 1a3d 73fa 873d 3ece 623c c0e0 10bd
000000f0: 1071 0dbd 830e 28bc f476 093d 6d50 2c3c
00000100: f219 a13d 7af1 5ebc 63fd 35bd 862a 563d
00000110: bb65 31bd 1d93 7e3b 2d3a 32bc 4549 5a3b
00000120: 29a7 da3b 52b2 aa3b e9c9 983d 79ec 2abb
00000130: b7fc 76bb cc7e 0bbd e320 4e3d 0a10 05bd
00000140: c5ff 363d 352d a63c 290d 653d ce66 8f3a
00000150: 60ef 8c3c 051d 173d 33a1 913c 97b7 3dbd
00000160: f484 333d 5499 6f3c 8cca 48bc 522a 83bd
00000170: 689e 353d e41e 70bd e808 183d ce03 16bd
00000180: f563 98bd f6cb 5fb9 c824 79bd 404e 17bd
00000190: 7aef 23bd fdae 59bd 796f 5fbd 4fd1 6fbc
000001a0: e9d8 43bd 6827 873d 13a8 b83c 604f 5dbc
000001b0: a8d5 85ba ba4d eebc ca54 a0bc e403 0dbd
000001c0: 8d4d d9ba f180 21bd a6b4 183d 262b 83bd
000001d0: 99e8 0ebd ffe3 fb3c 9ebd 843d 6ee3 433a
000001e0: e3a9 74bc de44 653c 60a8 f73c 5608 0abd
000001f0: 1fb2 3c3d a48c 293d 1ea7 6cbb 18c6 11bd
00000200: 8b8d 433d 84c2 4fbc 7008 1bbd 4133 973c
00000210: 2947 73bc 311a ad3d 3967 433d 3882 ce3c
00000220: 0989 6e3d dfbe cebc a2ce 81bd 0cef b2bc
00000230: 55a4 5e3d 22c8 d33c 678a 773d 14f7 a5bb
00000240: 93c5 393c 66fb 5c3c c56e 68bc 0908 813d
00000250: c97f 163d f354 853b 0910 0d3c f1f0 0e3d
00000260: e453 7ebc e1be 04bc af50 6cbc d968 6a3c
00000270: 060e 40bd c433 263d f507 2f3d f08e d93c
00000280: 3044 fa3c 08ca 28bc 38c7 03bd 39cb 1bbd
00000290: aaab 83bc ba68 023d d75f 933d d046 e3bc
000002a0: 532d bc3c 4ca1 533d 6e96 cb3c 9c87 f6bb
000002b0: d7b5 fc3b c0be bfbc 2335 97bb e066 8b3c
000002c0: a596 813b db56 583c d4a0 213d 9239 37bd
000002d0: c3ad c6bb 53dc 48bc 2513 54bc 7389 b6ba
000002e0: 54b1 ecbc 8c00 a9bc def1 ef39 df3d 583d
000002f0: 1957 73bd 41a4 4bbd b004 06bc dd69 84bc
00000300: 8ab1 ea3b 3e34 09bd 634f 2c3c f571 66bd
00000310: 68b2 023c 6dbd 843d 1c8a 17bd d777 033d
00000320: 796c a7bc 0f6a 413d d3e4 dc3b 3737 7e3c
00000330: ecea 40bd b0b3 843c 7a0d cdbc 0e41 96bb
00000340: 758f 523d 8d58 83bd f777 693c d4aa 49bd
00000350: c0b3 5c3d 8f51 ef3c 6ffc 6b3d 88b7 333d
00000360: 40a6 c4bc 8a78 95bd a2de a33c 3339 94bc
00000370: 1ac2 b4bd 9d89 933d e5d1 9fbd afc7 a4bc
00000380: 7e09 f13b 560c 36bd 58c3 063c e81d 793d
00000390: 8fee 533c 0335 a83d e486 f0bc 2b6c 423d
000003a0: 4283 d6bb e1b2 c83c ff7d 843d 47d6 b83c
000003b0: 6662 353c 7844 4abd 4421 05bd 7e0c 9dbc
000003c0: 852c d93c 8ad6 df3c 906f 033d 4652 edbc
000003d0: 9bf9 4c3d 32f2 89bd 5c25 68bd 23be 4f3d
000003e0: ee43 503d d4e7 f33c 344f 41bd 119b 6b3c
000003f0: cefb 94bb bdc4 d53c 17c2 b4bc 52f9 1f3d

weight f4 [200]
1.0024369 1.0279373 0.9763677 0.9418362 1.0571816 1.0227295 1.0256994 1.0179533
0.97580624 1.0279754 1.0013269 0.99270266 0.9562761 0.98481035 1.018101 0.948629
1.0143653 1.0411421 0.99991673 1.0002254 1.0341054 0.9902904 0.99604213 1.0244389
0.9562871 0.98137915 0.969374 0.97742474 1.0051111 0.9947757 1.055816 1.0019155
1.0392506 0.98026806 0.9939996 0.95964736 0.9651397 1.0227293 1.0159929 1.0054214
0.98053306 1.0288169 0.9984524 0.9719664 0.9944643 1.0044888 1.0120066 0.9556256
1.0079811 0.9651038 1.0234205 0.9511418 1.0126766 0.99216604 0.9865392 0.99620485
0.95585495 0.97420377 1.0104433 0.98507637 1.0089957 1.0189202 1.0278352 0.9635246
0.97183836 0.9997935 0.98703945 0.94534683 1.0186758 1.035678 0.96449465 0.942688
0.99760777 0.9405609 0.9686638 0.9828474 0.943211 0.98318994 0.9942 1.0155597
0.9772893 0.9970466 0.98783076 0.9768519 1.0147392 0.9695558 1.049738 0.98692894
1.0094594 1.0275658 1.0304364 1.0699406 1.0402553 1.0131576 0.9233514 0.97058415
1.0182172 1.045565 1.0361568 1.0192183 1.0147197 1.0117737 0.98523724 0.99158365
1.0301442 0.95994574 1.035875 1.0155073 0.98248667 0.95896643 0.9623885 1.0442941
0.96554655 1.0233436 1.0035253 0.980609 0.9940121 1.0506405 0.92467266 1.0066347
0.9461241 1.0337394 1.0030288 1.0512042 1.017547 0.9822773 1.0443571 0.9846161
0.945984 1.0388271 1.0012628 1.0338179 1.0441924 0.9991264 1.0746219 1.0620394
1.0350122 1.0046955 0.92040336 1.0149268 1.0010114 0.9784048 1.0337406 1.007347
0.9939423 0.9998664 1.022078 1.0144747 1.0157851 0.9849108 1.0102689 1.0046746
0.9977568 0.9899173 1.0429131 1.0348159 0.95864856 0.98412365 1.0061479 0.9962652
1.0195628 0.9872616 1.0108625 1.01254 0.98768836 1.0698528 0.9737217 0.9229352
1.04692 1.0348467 1.0101436 1.011385 0.9645475 0.9570622 0.9758071 1.0380021
0.9792616 1.0526162 0.96029127 0.9956806 0.99136853 0.99253637 1.015595 1.0496373
1.0387923 0.98465693 0.9523288 1.0439161 0.9764218 1.0322804 1.0169768 0.98978305
1.0127527 1.0156084 1.087138 0.97735554 0.98996395 1.0242594 1.0647917 1.0361329
00000000: da4f 803f 7393 833f 3cf3 793f 2d1c 713f
00000010: ba51 873f cde8 823f 1e4a 833f 4b4c 823f
00000020: 70ce 793f b394 833f 7b2b 803f c321 7e3f
00000030: 83ce 743f 881c 7c3f 2251 823f 5ad9 723f
00000040: b9d6 813f 2544 853f 8bfa 7f3f 6307 803f
00000050: 915d 843f ac83 7d3f 9efc 7e3f d020 833f
00000060: 3bcf 743f aa3b 7b3f e528 783f 8238 7a3f
00000070: 7ba7 803f 9fa9 7e3f fb24 873f c43e 803f
00000080: 2a06 853f d9f2 7a3f c276 7e3f 73ab 753f
00000090: 6513 773f cbe8 823f 0e0c 823f a6b1 803f
000000a0: 3704 7b3f 46b0 833f 949a 7f3f cad2 783f
000000b0: 3695 7e3f 1793 803f 6f89 813f e1a3 743f
000000c0: 8605 813f 0b11 773f 71ff 823f 077e 733f
000000d0: 639f 813f 98fe 7d3f d58d 7c3f 4807 7f3f
000000e0: e9b2 743f 6b65 793f 3556 813f f72d 7c3f
000000f0: c526 813f fa6b 823f 1b90 833f 8ca9 763f
00000100: 66ca 783f 78f2 7f3f 9eae 7c3f 4002 723f
00000110: f863 823f 1991 843f 1fe9 763f 0054 713f
00000120: 3963 7f3f 99c8 703f 5afa 773f e39b 7b3f
00000130: 4776 713f 56b2 7b3f e483 7e3f dcfd 813f
00000140: a22f 7a3f 723e 7f3f 7ae2 7c3f f712 7a3f
00000150: f9e2 813f cf34 783f d15d 863f 60a7 7c3f
00000160: f735 813f 4787 833f 57e5 833f d0f3 883f
00000170: 1627 853f 26af 813f c260 6c3f 3478 783f
00000180: f154 823f 13d5 853f c9a0 843f bf75 823f
00000190: 56e2 813f cd81 813f 8238 7c3f 6dd8 7d3f
000001a0: c4db 833f 01bf 753f 8d97 843f 25fc 813f
000001b0: 3f84 7b3f d37e 753f 185f 763f 6eab 853f
000001c0: 0f2e 773f ecfc 823f 8473 803f 3109 7b3f
000001d0: 9477 7e3f 637b 863f 59b7 6c3f 68d9 803f
000001e0: 3035 723f 9351 843f 3f63 803f dc8d 863f
000001f0: fb3e 823f 8676 7b3f 7ead 853f cd0f 7c3f
00000200: 022c 723f 49f8 843f 6129 803f 2554 843f
00000210: 19a8 853f bfc6 7f3f 368d 893f e8f0 873f
00000220: 487b 843f dd99 803f 8e9f 6b3f 1fe9 813f
00000230: 2421 803f bd78 7a3f 9d51 843f bff0 803f
00000240: 0173 7e3f 3ff7 7f3f 74d3 823f 4fda 813f
00000250: 3f05 823f 1d23 7c3f 7e50 813f 2d99 803f
00000260: fd6c 7f3f 386b 7d3f 2d7e 853f d974 843f
00000270: fe69 753f 87ef 7b3f 74c9 803f 3c0b 7f3f
00000280: 0981 823f 2dbd 7c3f f163 813f e99a 813f
00000290: 25d9 7c3f f0f0 883f d345 793f 7b45 6c3f
000002a0: 7901 863f db75 843f 634c 813f 1075 813f
000002b0: 96ec 763f 0702 753f 7ece 793f 41dd 843f
000002c0: e3b0 7a3f 21bc 863f a6d5 753f ece4 7e3f
000002d0: 54ca 7d3f dd16 7e3f 04ff 813f 845a 863f
000002e0: 25f7 843f 7a12 7c3f d2cb 733f 0b9f 853f
000002f0: c7f6 793f c421 843f 4c2c 823f 6c62 7d3f
00000300: e1a1 813f 75ff 813f 5727 8b3f f933 7a3f
00000310: 476e 7d3f ef1a 833f 184b 883f 01a0 843f

bias f4 [200]
-0.06347941 0.018752042 -0.017788012 -0.073396035 0.0001878942 0.006863364 -0.034877766 -0.03323443
0.021347955 0.0030915302 0.014900628 0.023348702 -0.053142123 -0.027689945 -0.11896574 0.03660696
-0.037576385 0.13189772 0.012318003 0.04557397 0.065219134 0.025674468 -0.0059416224 0.034554645
-0.026082804 -0.008488961 0.009997608 0.0047795624 -0.0037206833 -0.0102982875 -0.005260135 -0.0053810654
-0.020375125 -0.015777431 0.013943459 0.05831176 0.029658835 -0.08035216 -0.040632594 -0.02864781
-0.007056698 0.01259886 -0.023813374 -0.0067588408 0.044780858 0.022389553 -0.028494919 0.023388734
-0.0021248732 -0.023757627 -0.0038967165 -0.046686735 0.008775219 -0.012303985 0.0011310843 -0.0059243254
-0.014578731 0.055906 0.0387548 -0.039907515 -0.07343057 -0.022922432 0.0059931134 -0.034850895
0.0462523 -0.047986005 -0.012878193 -0.02727687 -0.034706347 -0.032362044 0.02196623 0.040618263
0.025924664 -0.07905381 0.009626441 0.031323843 -0.018710922 0.010274441 0.009399133 0.030764775
-0.059910282 0.066692926 -0.048827022 -0.015186474 0.103999525 0.02752523 -0.03008402 -0.01637396
-0.039698623 -0.022445736 -0.017574532 0.05503889 -0.0033221503 0.042282738 -0.04018773 -0.020834893
-0.038357917 -0.0724097 -0.05965649 0.03789188 -0.032329727 -0.017808672 -0.0014623315 0.05374539
0.023292625 0.02376176 0.031399854 -0.0069711534 -0.027450057 -0.01495516 0.057502057 -0.035970364
0.034665953 0.03907835 -0.010970568 0.0072112754 -0.07416278 -0.03217921 0.016842483 -0.0042622685
-0.036172718 -0.011540252 -0.0047218897 0.0006087131 -0.018166475 -0.031255264 -0.015553442 0.048348535
0.02596185 -0.038200535 0.06500024 -0.032984775 -0.053900316 -0.05483972 0.062185965 -0.090414695
0.014582881 -0.005046419 -0.00026641996 -0.013218167 0.06959796 0.023782661 -0.018099898 -0.045218006
-0.08456745 0.0056240954 0.0022230113 0.016392762 0.029232237 0.027932236 0.05688155 -0.001394279
0.010413105 0.0022044599 0.046090417 -0.033226557 0.021431806 -0.027352102 -0.00893476 -0.090761326
0.02355587 -0.02430409 0.041350003 -0.020764755 0.073081575 -0.031022316 0.001906967 0.028901445
-0.0735098 0.06156463 0.026597204 0.044358075 -0.020019587 -0.034057368 -0.014238382 0.029169044
-0.029128188 -0.07086723 0.07563399 -0.047469042 -0.016309993 -0.010062887 0.031429406 -0.029618517
0.019584458 0.009068221 0.003829675 -0.0070429533 -0.028588133 -0.008249939 0.0986266 0.009135017
-0.028113347 0.00011354835 -0.011131997 0.036087207 -0.0068910304 0.08479386 -0.050307043 -0.080549106
00000000: 7e01 82bd e29d 993c 2ab8 91bc a950 96bd
00000010: 7705 4539 12e6 e03b fddb 0ebd d320 08bd
00000020: e8e1 ae3c 459b 4a3b c321 743c c745 bf3c
00000030: 8eab 59bd 06d6 e2bc 4fa4 f3bd 2ef1 153d
00000040: b2e9 19bd 3210 073e 73d1 493c c5ab 3a3d
00000050: 9c91 853d 4353 d23c f1b1 c2bb 2c89 0d3d
00000060: 9bab d5bc 4815 0bbc 02cd 233c e09d 9c3b
00000070: b5d6 73bb 26ba 28bc 365d acbb a653 b0bb
00000080: bce9 a6bc ac3f 81bc 1b73 643c 50d8 6e3d
00000090: 16f7 f23c ac8f a4bd 5d6e 26bd d0ae eabc
000000a0: e03b e7bb 736b 4e3c 4414 c3bc 4479 ddbb
000000b0: 226c 373d 4c6a b73c 2d6e e9bc bb99 bf3c
000000c0: 7541 0bbb 5b9f c2bc 0e60 7fbb 973a 3fbd
000000d0: f0c5 0f3c a796 49bc e440 943a d820 c2bb
000000e0: a1db 6ebc b1fd 643d 5abd 1e3d 1076 23bd
000000f0: c462 96bd d3c7 bbbc e161 c43b d0bf 0ebd
00000100: 0d73 3d3d f98c 44bd 0eff 52bc be73 dfbc
00000110: 3e28 0ebd 108e 04bd 86f2 b33c 565f 263d
00000120: f65f d43c f7e6 a1bd 38b8 1d3c 6e4d 003d
00000130: a647 99bc 2156 283c d2fe 193c 6906 fc3c
00000140: 7c64 75bd 4d96 883d d8fe 47bd b0d0 78bc
00000150: b4fd d43d 977c e13c c372 f6bc af22 86bc
00000160: 069b 22bd 1fe0 b7bc 77f8 8fbc 7670 613d
00000170: 6fb8 59bb aa30 2d3d e49b 24bd f0ad aabc
00000180: 311d 1dbd 894b 94bd 5d5a 74bd 8434 1b3d
00000190: 2d6c 04bd 7ee3 91bc b4ab bfba 2024 5c3d
000001a0: 2dd0 be3c 06a8 c23c 229d 003d 466e e4bb
000001b0: f1de e0bc 7d06 75bc 4787 6b3d a955 13bd
000001c0: e3fd 0d3d 9f10 203d e6bd 33bc 904c ec3b
000001d0: a8e2 97bd 59ce 03bd 3ff9 893c 80aa 8bbb
000001e0: d829 14bd 5313 3dbc 15ba 9abb 0b92 1f3a
000001f0: dcd1 94bc 8505 00bd ddd3 7ebc 1d09 463d
00000200: f2ad d43c 2a78 1cbd d91e 853d 0b1b 07bd
00000210: 94c6 5cbd 9d9f 60bd b6b6 7e3d 572b b9bd
00000220: 09ed 6e3c 6e5c a5bb 48ae 8bb9 0391 58bc
00000230: 6089 8e3d dbd3 c23c 3d46 94bc 8436 39bd
00000240: b331 adbd 554a b83b f1af 113b 1d4a 863c
00000250: 7278 ef3c 25d2 e43c a1fc 683d 3dc0 b6ba
00000260: ba9b 2a3c b378 103b 4ec9 3c3d 9218 08bd
00000270: c191 af3c 8411 e0bc 1963 12bc 13e1 b9bd
00000280: 3df8 c03c 5f19 c7bc 9f5e 293d d91a aabc
00000290: cbab 953d 8322 febc 32f3 f93a b9c2 ec3c
000002a0: 4e8c 96bd 322b 7c3d 61e2 d93c d0b0 353d
000002b0: 1e00 a4bc bd7f 0bbd 1a48 69bc ebf3 ee3c
000002c0: 3d9e eebc d722 91bd fee5 9a3d e66e 42bd
000002d0: 899c 85bc cfde 24bc 1fbc 003d 88a2 f2bc
000002e0: 966f a03c e092 143c 49fb 7a3b 93c8 e6bb
000002f0: a931 eabc c12a 07bc befc c93d 0aab 153c
00000300: f64d e6bc ce20 ee38 fb62 36bc 2ed0 133d
00000310: 27ce e1bb 67a8 ad3d c20e 4ebd eef6 a4bd
